code/basic_lstm.pt (torch, 109924 bytes, 16 tensors)

conv.weight f4 [64, 12, 3]
0	0xbd4d5a80	-0.050135136
1	0xbdcb71cb	-0.09933814
2	0xbe24f33b	-0.1610841
3	0xbde5639e	-0.11200641
4	0x3dc148b6	0.09437697
5	0x3d4305cb	0.047612946
6	0x3de29d56	0.11065166
7	0xbc986c76	-0.018606406
8	0xbe1aa53e	-0.15102097
9	0x3cf587eb	0.029972037
10	0x3cb4bf20	0.022063792
11	0xbd403a7b	-0.04693077
12	0x3da687b6	0.081313536
13	0xbdf0ed10	-0.11763966
14	0xbe1d75dc	-0.15376991
15	0x3c0041eb	0.007828216
16	0x3d9a543b	0.07535597
17	0xbe065038	-0.13116539
18	0x3d534016	0.05157479
19	0x3cd0362b	0.025416454
20	0x3d6c1b40	0.057643175
21	0x3c85f3d6	0.016351622
22	0x3e25816c	0.16162652
23	0xbe29deb2	-0.16588858
24	0xbdd7d378	-0.10538381
25	0x3d732d70	0.059369504
26	0xbd8d27c3	-0.068923496
27	0xbd2d46bb	-0.042303782
28	0xbddfd776	-0.10929768
29	0x3cbbd400	0.022928238
30	0xbc380640	-0.011231959
31	0x3d534510	0.051579535
32	0xbdebdf3e	-0.115171894
33	0xbd1f5530	-0.0388996
34	0x3d971ac8	0.07378155
35	0xbd0f1400	-0.034931183
36	0x3c9e4c80	0.019323587
37	0xbe28457f	-0.1643276
38	0xbdc3a0c0	-0.09552145
39	0x3d49175b	0.04909454
40	0xbd7ed3c6	-0.06221368
41	0xbde654c3	-0.11246636
42	0xbd075ca6	-0.03304734
43	0x3d43975b	0.047751766
44	0xbe005824	-0.12533623
45	0xbca3f82b	-0.020015797
46	0xbd142a70	-0.036173284
47	0x3dff0183	0.1245146
48	0x3d0dc280	0.034609318
49	0x3d8f2906	0.069902465
50	0xbd309dc6	-0.043119214
51	0x3dc2b390	0.09506905
52	0x3dc7a4a3	0.09748199
53	0xbceffb2b	-0.02929457
54	0xbd010d26	-0.03150668
55	0x3e104e67	0.14092408
56	0xbdc72016	-0.09722917
57	0x3dc6c138	0.09704822
58	0xbd081076	-0.033218823
59	0x3d7fe956	0.062478386
60	0xbdb63390	-0.088965535
61	0x3e18d6f3	0.14925747
62	0xbe0f65c7	-0.14003669
63	0x3e0ece9f	0.13946007
64	0xbd929b18	-0.07158488
65	0x3d1b7e3b	0.03796218
66	0xbd8444d3	-0.0645844
67	0x3d49ce56	0.049269043
68	0x3ddce483	0.10785773
69	0x3d4bab96	0.049724184
70	0xbe17e050	-0.14831662
71	0x3dd34c8e	0.10317336
72	0x3d9acdf0	0.07558811
73	0xbdd21d2b	-0.102594696
74	0xbde06e88	-0.10958582
75	0x3e178340	0.14796162
76	0xbe098d8f	-0.13432907
77	0x3decc548	0.11561066
78	0x3dc79260	0.09744716
79	0x3d8da5f0	0.06916416
80	0x3d9b485b	0.0758216
81	0xbdae0930	-0.08497846
82	0xbe11d49e	-0.14241263
83	0x3e0c93df	0.13728283
84	0xbdf13c78	-0.117791116
85	0x3e1fc63b	0.15602963
86	0x3c527216	0.012844583
87	0xbdf5f416	-0.12009446
88	0xbdbf6f1e	-0.09347366
89	0x3d568c9b	0.052380186
90	0x3d5f9f56	0.054595314
91	0x3d3a6ae6	0.045512103
92	0x3dd01ce3	0.1016176
93	0xbe20b072	-0.15692309
94	0xbe05ebb6	-0.13078198
95	0x3cf40ca0	0.029791176
96	0xbc74e22b	-0.014946501
97	0x3d09b800	0.03362274
98	0x3e115d2e	0.14195701
99	0x3e1c93b2	0.15290716
100	0xbd51a44b	-0.051182073
101	0x3df590f6	0.1199054
102	0xbdd10aa8	-0.10207111
103	0xbdf2a87b	-0.11848541
104	0xbc8e4096	-0.017364781
105	0xbe220a0b	-0.15824144
106	0x3df4278e	0.11921607
107	0x3dffa596	0.12482755
108	0xbda68760	-0.081312895
109	0x3e1b8a6f	0.15189527
110	0xbe288643	-0.16457467
111	0xbd82ec20	-0.063926935
112	0x3d721696	0.05910357
113	0xbcb7a076	-0.02241538
114	0xbe0daf27	-0.13836347
115	0xbd421610	-0.04738432
116	0xbda66b3b	-0.08125921
117	0xbd8d7f8b	-0.069090925
118	0xbde19863	-0.110153936
119	0x3dba3c30	0.09093511
120	0x3da944f0	0.08265102
121	0x3c4e81d6	0.0126041975
122	0xbe0eccf4	-0.13945371
123	0x3e11cc12	0.14238003
124	0xbe1d7006	-0.15374765
125	0xbd01858b	-0.031621497
126	0x3d8054e0	0.062661886
127	0xbe110893	-0.14163427
128	0xbd9681c3	-0.07348969
129	0xbdc57db6	-0.09643118
130	0x3d1af26b	0.037828844
131	0x3d5e1cfb	0.054226857
132	0x3e24654e	0.1605427
133	0x3ad730ab	0.0016417702
134	0xbe0bc7d3	-0.13650446
135	0xbe2221f6	-0.15833268
136	0xbb3b3000	-0.0028562546
137	0x3dffc58b	0.1248885
138	0x3e0faf78	0.1403178
139	0x3d720420	0.059085965
140	0x3da89350	0.08231223
141	0x3d569666	0.052389525
142	0xbe143360	-0.14472723
143	0x3c901496	0.017587941
144	0x3e077f48	0.13232148
145	0x3db91b80	0.09038448
146	0xbe0b61b7	-0.13611494
147	0x3dd2e89b	0.10298272
148	0xbca62e0b	-0.020285627
149	0x3e28706b	0.16449134
150	0xbdec7c4e	-0.11547147
151	0xbdd51376	-0.104041025
152	0xbdb3f2cb	-0.087865435
153	0x3e112c6f	0.14177106
154	0xbdf398a8	-0.11894351
155	0xbde858d8	-0.113450706
156	0xbd9f07d3	-0.07765164
157	0xbd5ca5b0	-0.05386895
158	0xbd9627fb	-0.073318444
159	0x3d4de79b	0.050269704
160	0xbcb5ebe0	-0.0222072
161	0xbd1a8076	-0.037720166
162	0xbc4e9540	-0.012608826
163	0x3d3fea46	0.04685428
164	0x3cc508ab	0.024051985
165	0xba83f800	-0.0010068417
166	0xbd136b36	-0.035990916
167	0x3e12da82	0.14341167
168	0xbd3ad740	-0.045615435
169	0xbd6d9abb	-0.05800889
170	0xbdd6cafe	-0.104879364
171	0xbe043707	-0.12911616
172	0x3e0c64ce	0.13710329
173	0x3dd3c72e	0.10340725
174	0x3dc2202b	0.09478792
175	0xbdfaa646	-0.122387454
176	0xbdede1a6	-0.11615305
177	0x3dac4150	0.08410895
178	0xbe277b20	-0.16355562
179	0x3dd88da6	0.10573892
180	0x3dc197f8	0.09452814
181	0xbdca3780	-0.09873867
182	0xbda6ad43	-0.08138516
183	0xbdce7948	-0.10081726
184	0xbcefa136	-0.029251676
185	0xbe13202b	-0.1436774
186	0x3dd40478	0.10352415
187	0x3e2a2f33	0.16619568
188	0x3e05c037	0.13061605
189	0xbdc285e8	-0.09498197
190	0xbdde7b1e	-0.108633265
191	0xbd63aa4b	-0.055582326
192	0xbca01f36	-0.019546133
193	0xbda8c0e0	-0.08239913
194	0xbcb710c0	-0.022346854
195	0xbd9db95e	-0.077013716
196	0x3dd65168	0.10464746
197	0x3e27c28b	0.16382806
198	0xbd63e916	-0.05564221
199	0x3d27a01b	0.040924173
200	0xbd317b30	-0.04333037
201	0xbcbd14e0	-0.023081243
202	0xbb716b00	-0.0036837459
203	0xbda3eef3	-0.0800456
204	0x3dbfabe3	0.09358957
205	0xbe143d7e	-0.14476582
206	0x3dddfa16	0.10838716
207	0xbd904f80	-0.070464134
208	0xbc9017cb	-0.01758947
209	0xbd8241c3	-0.06360199
210	0x3de07c2b	0.10961183
211	0xbd16310b	-0.036667865
212	0x3cf2868b	0.02960517
213	0x3d092b2b	0.033488434
214	0xbdbbc926	-0.091692254
215	0x3d8329e8	0.06404477
216	0xbd90b630	-0.070659995
217	0xbd0fdbb0	-0.03512162
218	0xbdb1187e	-0.0864725
219	0xbc9cd7e0	-0.019145906
220	0x3c66edc0	0.01409477
221	0xbda39a96	-0.07988469
222	0xbdd7875b	-0.10523864
223	0x3d06eab6	0.03293868
224	0x3d20e226	0.039278172
225	0xbda7f5f3	-0.08201208
226	0xbda365c8	-0.079783976
227	0xbda5afe0	-0.08090186
228	0xbd46dd50	-0.048550904
229	0xbd5fa5ab	-0.054601353
230	0xbcd04c6b	-0.025427064
231	0xbe1babd6	-0.15202269
232	0xbd5db97b	-0.054131966
233	0x3dafc6de	0.08582853
234	0xbd8b9d4b	-0.06817111
235	0x3dc9a638	0.09846157
236	0x3e2895bc	0.16463369
237	0x3d963b96	0.07335584
238	0x3da59d3b	0.0808663
239	0xbd926ca6	-0.07149629
240	0x3d0007fb	0.03125761
241	0x3d3a96a6	0.045553826
242	0xbd2b2a36	-0.041788302
243	0xbd82863e	-0.06373261
244	0x3e08469b	0.13308184
245	0x3cb0e2cb	0.021592518
246	0x3d8a5ff8	0.06756586
247	0xbd7c3ab0	-0.061579406
248	0x3d52370b	0.051322024
249	0x3e1c3ed2	0.15258339
250	0xbd89ce90	-0.06728852
251	0xbcd59400	-0.026071548
252	0x3e176d76	0.1478785
253	0x3ced4cab	0.028967222
254	0x3e117592	0.14205006
255	0xbcafbbab	-0.021451792

conv.bias f4 [64]
0	0xbdc2f093	-0.09518542
1	0x3d0c2f76	0.03422495
2	0xbd4ec35b	-0.050479274
3	0x3dd8f5be	0.105937466
4	0xbdfaaf43	-0.1224046
5	0x3c845be0	0.01615709
6	0x3e225296	0.15851817
7	0x3dab88db	0.083757125
8	0xbd7702f6	-0.06030556
9	0xbda11d70	-0.07866943
10	0x3e0954bb	0.13411228
11	0x3deb3878	0.1148538
12	0x3e17dacf	0.14829563
13	0x3dd27106	0.10275464
14	0xbd16a530	-0.03677863
15	0x3cf7a1b6	0.030228477
16	0x3db52e08	0.088466704
17	0xbd21aaf0	-0.03946966
18	0xbc1d372b	-0.009595673
19	0x3dbbf55b	0.09177657
20	0x3b7404ab	0.0037234228
21	0x3e147f23	0.14501624
22	0xbde9090e	-0.1137868
23	0x3cefed60	0.029287994
24	0x3dd68118	0.104738414
25	0x3d1d70a6	0.038437508
26	0xbc61f16b	-0.013790469
27	0x3e150477	0.14552484
28	0xbd8f4093	-0.069947384
29	0xbdede1a3	-0.116153024
30	0xbaa9a0ab	-0.001294156
31	0x3ccaa860	0.02473849
32	0xbd4b4b36	-0.049632274
33	0x3d7e6c56	0.062115036
34	0x3d6ad1ab	0.05732886
35	0x3dbc28d3	0.09187474
36	0xbdac6a86	-0.08418755
37	0xbbfd3b2b	-0.0077280006
38	0x3d915d5b	0.07097884
39	0x3d3bb696	0.045828424
40	0x3dc3d19e	0.09561466
41	0xbd93501b	-0.07193013
42	0x3bba4f00	0.005685687
43	0x3d60571b	0.05477057
44	0x3ddf1fe0	0.108947515
45	0xbda933bb	-0.0826182
46	0x3c10ac56	0.008830151
47	0xbd1e9c3b	-0.03872321
48	0xbe298bd8	-0.16557252
49	0x3c5ee6c0	0.01360482
50	0xbddf0196	-0.10888974
51	0xbe06aa16	-0.1315082
52	0x3d1210f6	0.035660706
53	0x3beedc2b	0.0072894297
54	0x3d4bf17b	0.04979084
55	0xbb64cb56	-0.0034911237
56	0x3d0b6580	0.034032345
57	0x3d6b402b	0.057434242
58	0x3e173030	0.14764476
59	0xbbd44500	-0.006477952
60	0x3dc6d103	0.097078346
61	0x3d700f2b	0.058608215
62	0xbe1ab577	-0.15108286
63	0xbd438e06	-0.047742866

lstm.weight_ih f4 [200, 64]
0	0xbc3e1827	-0.011602438
1	0xbe02269f	-0.12710045
2	0xbe02ae23	-0.1276174
3	0x3d572b69	0.052531634
4	0xbce4ad9f	-0.02791482
5	0xbdce9164	-0.10086325
6	0x3d854b69	0.06508524
7	0x3e040103	0.12891011
8	0x3da7a504	0.08185771
9	0xbe100110	-0.14062905
10	0xbdc7c017	-0.09753435
11	0xbd527e79	-0.051390145
12	0x3d7cd268	0.061724097
13	0xb95a563f	-0.00020822229
14	0x3cd86dfe	0.026419636
15	0xbd9ab42b	-0.075538956
16	0xbd9ba09c	-0.07598993
17	0x3d608f6e	0.054824285
18	0xbd90efa7	-0.0707696
19	0x3d0a93ec	0.033832476
20	0x3c7d75ad	0.015469951
21	0xbe03a1ff	-0.12854765
22	0x3d9a3ca4	0.075310975
23	0x3cf3dd8b	0.029768726
24	0xbd70498a	-0.058663882
25	0x3d636836	0.055519305
26	0xbd2da367	-0.04239216
27	0xbbb9ee30	-0.005674146
28	0xbdd455eb	-0.1036795
29	0xbe0ea1c2	-0.13928893
30	0x3d49f97d	0.049310196
31	0xbd9c8d37	-0.07644122
32	0xbd76da67	-0.06026688
33	0xbda57142	-0.08078243
34	0xbcc39e8b	-0.02387931
35	0xbd73ea80	-0.05954981
36	0xbd3b2fcc	-0.04569988
37	0xbdc28d73	-0.094996355
38	0xbc2bdecd	-0.010490132
39	0x3b98db93	0.004664847
40	0x3d425ef3	0.047453832
41	0x3d9f065e	0.07764886
42	0xbbc58188	-0.006027404
43	0xbdf00eb7	-0.11721557
44	0xbbf39a27	-0.007434148
45	0xba010c08	-0.0004922752
46	0xbe1019a9	-0.14072289
47	0xbc848cf6	-0.016180497
48	0x3dc4660d	0.09589777
49	0xbde6f15a	-0.11276503
50	0x3c2c9b9a	0.010535145
51	0xbd96bf20	-0.07360673
52	0x3dfd749b	0.12375756
53	0xbd9926ed	-0.07478128
54	0xbd244f81	-0.040114883
55	0x3d571156	0.052506767
56	0xbe0bf68e	-0.13668272
57	0x3cf795fb	0.030222883
58	0x3de83d6b	0.113398395
59	0x3db03ab5	0.086049475
60	0xbd05a4ec	-0.032627985
61	0xbc8eab4e	-0.017415669
62	0xbdfeecf7	-0.12447541
63	0xbba4c8b8	-0.0050288104
64	0x3d548c81	0.051891807
65	0x3d0ad835	0.033897597
66	0x3d63cb6b	0.055613916
67	0xbd23ffd9	-0.040038917
68	0x3dea8a67	0.114521794
69	0xbcd92945	-0.026508937
70	0xbd0784d6	-0.033085667
71	0x3dfbcbb0	0.1229471
72	0xbe059b74	-0.13047582
73	0xbd331936	-0.043725215
74	0x3d814ca0	0.06313443
75	0x3dde8dc1	0.10866881
76	0x3dd18981	0.10231305
77	0xbd453088	-0.048141986
78	0xbd97ca0a	-0.07411583
79	0xbe022b5a	-0.1271185
80	0x3ddd0101	0.10791207
81	0x3df3fd48	0.11913544
82	0xbd9674b8	-0.07346481
83	0xbdda8bed	-0.1067122
84	0x3dfc5908	0.12321669
85	0x3e05dc88	0.13072407
86	0xbdbb25a9	-0.091380425
87	0x3e0d8527	0.13820325
88	0xbd4a3561	-0.049367312
89	0x3de688f2	0.11256589
90	0xbd5eb5fd	-0.054372776
91	0xbd9106a0	-0.07081342
92	0xbe0b76d8	-0.13619554
93	0xbddc3d39	-0.10753865
94	0xbb7c8f4d	-0.0038537562
95	0xbd466041	-0.04843164
96	0xbc649531	-0.013951586
97	0x3d8e382e	0.06944309
98	0x3dbef468	0.093239605
99	0xbba850f8	-0.0051366054
100	0xbdc4ff78	-0.09619039
101	0xbdfea5fb	-0.12434002
102	0xbb590dde	-0.0033119838
103	0x3d976564	0.073923856
104	0x3dbc926c	0.09207615
105	0xbdeac58b	-0.114634596
106	0x3d253b61	0.04033983
107	0x3dab6c47	0.08370262
108	0x3dcb125c	0.09915611
109	0x3c9f2b2c	0.019429766
110	0x3d553335	0.052050788
111	0xbcf2ee1d	-0.029654557
112	0xbd80cbe8	-0.06288892
113	0x3df4f031	0.119598754
114	0xbdf9f408	-0.122047484
115	0x3e102958	0.14078271
116	0xbd8b9f70	-0.0681752
117	0xbd68316f	-0.05668777
118	0x3daf03df	0.0854566
119	0x3d98bdce	0.07458077
120	0xbcb043f3	-0.021516776
121	0x3d9ba09c	0.07598993
122	0x3c24fd0c	0.010070097
123	0x3de7bf70	0.11315811
124	0x3def0bc4	0.11672166
125	0x3d152b05	0.03641798
126	0x3da84663	0.0821655
127	0x3d8402c6	0.064458415
128	0xbded7e0f	-0.115963094
129	0x3b65af9c	0.0035047298
130	0x3d0ebb32	0.034846492
131	0x3bf1f591	0.00738401
132	0x3e018240	0.12647343
133	0xbd7557a6	-0.05989804
134	0x3cfcb960	0.030850112
135	0x3c564466	0.013077831
136	0xbde9ba04	-0.11412433
137	0xbd4dfcf8	-0.050290078
138	0x3d943a45	0.072376765
139	0x3c5389d9	0.012911283
140	0xbbfeba19	-0.0077736494
141	0x3dc86c43	0.09786274
142	0x3d1ab0d4	0.037766293
143	0xbe0edf70	-0.13952422
144	0x3ae6a24a	0.0017595973
145	0xbdaea9bb	-0.08528467
146	0x3d181bd8	0.03713593
147	0xbdf6c9a5	-0.120501794
148	0x3e0c266c	0.13686532
149	0xbbe99f85	-0.007129612
150	0x3d4cc425	0.049991746
151	0x3d76ba5a	0.060236312
152	0xbdc8865b	-0.09791251
153	0x3d1642c1	0.036684755
154	0xbda8cc2e	-0.08242069
155	0x3d845a9f	0.06462597
156	0x3d4b11b3	0.049577426
157	0x3da2593d	0.07927177
158	0x3db958e4	0.09050158
159	0x3c3474c6	0.011014169
160	0xbdff3960	-0.12462115
161	0xbd56ef52	-0.052474327
162	0x3c85e8f6	0.016346436
163	0x3d9674c3	0.07346489
164	0x3dd048f0	0.10170162
165	0x3de555cc	0.11198005
166	0xbdc1258f	-0.09430992
167	0xbe019d56	-0.12657675
168	0x3e04da25	0.1297384
169	0xbe00244a	-0.12513843
170	0xbd173c81	-0.036922935
171	0xbde27021	-0.11056543
172	0x3d2942c3	0.041323435
173	0xbdd7061a	-0.10499211
174	0x3dd30648	0.103039324
175	0xbbe3ef96	-0.006956051
176	0x3e0a7aa4	0.13523346
177	0xbd575a93	-0.052576613
178	0x3c930657	0.017947359
179	0x3c1ea320	0.009682447
180	0x3dd92b39	0.10603947
181	0x3de7a3b8	0.11310524
182	0xbcfcb8e1	-0.030849876
183	0xbdffba66	-0.124867246
184	0xbcbcc90e	-0.02304509
185	0x3c830afc	0.015996449
186	0x3e03fbe8	0.12889063
187	0x3c37679c	0.011194136
188	0xbdb50822	-0.08839442
189	0x3dd1645a	0.10224219
190	0x3dbc518b	0.091952406
191	0xbe0abc21	-0.13548328
192	0xbdc48e11	-0.095974095
193	0xbdad6821	-0.08467127
194	0x3e075d09	0.13219084
195	0xbd58182a	-0.05275742
196	0xbd729788	-0.059226543
197	0xbd5b9a36	-0.053613864
198	0xbd945faf	-0.07244813
199	0xbd38edfc	-0.045148835
200	0x3c2dd150	0.010608986
201	0xbddfb224	-0.109226495
202	0x3c43318b	0.011913667
203	0x3d6b8f14	0.057509497
204	0xbc4660fa	-0.012108082
205	0x3dac1c8b	0.08403882
206	0xbd87c5fc	-0.066295594
207	0x3df1105e	0.117707
208	0xbdb34e99	-0.08755226
209	0x3dcfbeb2	0.10143794
210	0x3dbeaa4b	0.093098246
211	0x3d567871	0.052360956
212	0x3d2bd578	0.041951627
213	0xbd29c343	-0.04144598
214	0xbd8e645d	-0.069527365
215	0xbc459e3d	-0.012061653
216	0xbcac397d	-0.021023506
217	0x3da54671	0.08070076
218	0xbdf95800	-0.12174988
219	0x3ddba64b	0.10725077
220	0x3d9996bf	0.07499456
221	0x3c83579a	0.016032983
222	0x3ddbe4bd	0.10736988
223	0xbd80680d	-0.06269846
224	0x3dcec889	0.10096843
225	0xbde981d2	-0.114017144
226	0xbd80723e	-0.0627179
227	0x3c1b8844	0.0094929375
228	0xbccdfbf6	-0.025144558
229	0x3dc01559	0.09379072
230	0xbc9f975c	-0.019481353
231	0xbd4b37a2	-0.049613602
232	0xbd5f395a	-0.054498054
233	0x3da5bde0	0.080928564
234	0x3da2b897	0.07945364
235	0xbd9424d3	-0.07233586
236	0xbd945354	-0.07242456
237	0xbc29a2af	-0.010353728
238	0x3d594802	0.053047188
239	0xbda0b8b3	-0.078477286
240	0xbe0c106b	-0.13678138
241	0xbc74fca0	-0.014952809
242	0xbcda6e26	-0.026663851
243	0x3dd6aeab	0.10482534
244	0x3c84c813	0.016208684
245	0x3db0015a	0.08594008
246	0xbdaa5ae2	-0.08318116
247	0xbca5322f	-0.020165531
248	0xbd6642cf	-0.056216057
249	0xbe06a3b9	-0.13148393
250	0xbd9093c2	-0.070594326
251	0x3d6f66f6	0.0584478
252	0xbe0e41a3	-0.13892226
253	0x3de739c0	0.11290312
254	0xbc893126	-0.016747069
255	0x3df31cdd	0.118707396

lstm.weight_hh f4 [200, 50]
0	0xbba0a872	-0.0049028927
1	0xbd94b31d	-0.07260726
2	0x3df3ce64	0.119046
3	0xbd7ccd35	-0.06171914
4	0xbdaf3293	-0.08554568
5	0x3c9337b2	0.017970894
6	0x3d299678	0.041403264
7	0x3df141f4	0.11780158
8	0xbdcd7434	-0.100319296
9	0xbdd1ed78	-0.10250372
10	0xbdd19de7	-0.102351956
11	0xbdf75d43	-0.12078335
12	0xbca25aff	-0.019818781
13	0x3bc1e534	0.0059172157
14	0xbdb1fde2	-0.086910024
15	0x3c457abe	0.01205319
16	0xbd4fc145	-0.050721426
17	0xbc80f652	-0.015742455
18	0x3d844c2e	0.064598426
19	0xbc164dc8	-0.009173818
20	0xbd335dbb	-0.04379056
21	0xbcd1d26a	-0.025613029
22	0xbe0625e9	-0.13100399
23	0x3dbfe690	0.09370148
24	0x3d307d94	0.04308851
25	0xbd6f1600	-0.05837059
26	0xbc51671c	-0.012780931
27	0xbda5bc73	-0.080925845
28	0x3d9e6477	0.07734006
29	0xbd848766	-0.06471138
30	0xbde5f8fd	-0.11229131
31	0xbdd12224	-0.1021159
32	0xbc5e0bc0	-0.013552606
33	0xbdd27411	-0.10276044
34	0xbda03943	-0.07823422
35	0x3e08fa1d	0.1337666
36	0xbe0addb2	-0.13561133
37	0x3dffaabe	0.12483738
38	0xbd3b56e7	-0.045737173
39	0x3cb222a0	0.021745026
40	0xbd8d3986	-0.06895737
41	0xbd5e82ab	-0.054323833
42	0x3dd21faa	0.10259946
43	0xbbab6eba	-0.0052317055
44	0xbdc9f4b5	-0.09861127
45	0xbe04a7e5	-0.12954672
46	0x3b5106bb	0.003189488
47	0xbdd875d2	-0.105693474
48	0x3c09843b	0.008393343
49	0x3d378bf0	0.04481119
50	0x3d9e27d5	0.07722441
51	0xbcab5603	-0.020915037
52	0xbe0f58c6	-0.13998708
53	0xbd862605	-0.065502204
54	0xbe01329e	-0.12616965
55	0x3dd0a848	0.10188347
56	0x3d1fbb55	0.038997013
57	0x3c9634d2	0.018335734
58	0xbde00132	-0.10937728
59	0xbc5f26f3	-0.013620126
60	0x3d944b02	0.07240869
61	0xbe02b2a9	-0.12763466
62	0x3e0fc927	0.14041577
63	0xbce89f04	-0.028396137
64	0x3c3dab66	0.011576509
65	0x3db76038	0.08953899
66	0xbcb5fb7c	-0.022214644
67	0x3d53f128	0.051743656
68	0xbe03abf8	-0.1285857
69	0x3d9c3e7d	0.07629106
70	0x3c985b21	0.018598141
71	0xbd32f077	-0.043686356
72	0x3da4d01a	0.08047505
73	0x3d493c96	0.049130045
74	0x3ce427b2	0.02785096
75	0x3db0a7a3	0.08625724
76	0x3dd9d6e8	0.10636693
77	0x3dac53a7	0.08414393
78	0xbd3ba2e6	-0.04580965
79	0x3d363deb	0.044492643
80	0xbdb34344	-0.08753064
81	0xbd659443	-0.056049597
82	0x3dc35110	0.09536946
83	0xbd470f5e	-0.04859864
84	0x3e094621	0.13405658
85	0xbd24f211	-0.040269915
86	0xbd574f50	-0.052565873
87	0x3defd2b8	0.11710113
88	0x3d86a1e4	0.06573847
89	0xbe0d97f7	-0.13827501
90	0xbc91615d	-0.017746622
91	0x3d72bf77	0.059264626
92	0xbdd4a5d4	-0.10383192
93	0x3de86872	0.11348046
94	0x3d529e2b	0.051420372
95	0xbd0c1f09	-0.034209285
96	0x3d82f4e3	0.06394365
97	0xbdef3fd1	-0.11682094
98	0xbe0a567b	-0.13509552
99	0x3db95eb3	0.090512656
100	0x3da04a10	0.07826626
101	0xbc9e0cef	-0.019293277
102	0x3cef7055	0.029228369
103	0xbdc1354f	-0.09433996
104	0xbd9071da	-0.070529655
105	0xbe04c632	-0.1296623
106	0x3d687c23	0.05675901
107	0xbdbb06c2	-0.09132148
108	0x3df22adb	0.1182458
109	0xbcba629d	-0.0227521
110	0x3dfce91b	0.12349149
111	0xbcb2deae	-0.021834698
112	0x3dbcb937	0.092150144
113	0xbd1d5c48	-0.038418084
114	0x3c877b85	0.01653839
115	0xbd48795f	-0.048943873
116	0x3cc4bf14	0.024016894
117	0xbded76a0	-0.115948915
118	0xbd9a29e5	-0.07527522
119	0xbcf137b5	-0.029445508
120	0x3d060bd3	0.03272612
121	0xbe05a1a5	-0.13049944
122	0xbde3b4f7	-0.11118501
123	0x3bd34fcb	0.006448721
124	0xbdff969c	-0.12479898
125	0xbe05909d	-0.13043447
126	0xbcc222b8	-0.023698196
127	0xbd023266	-0.031786345
128	0xbda01d0a	-0.07818039
129	0x3dd515b8	0.10404533
130	0x3da7eeb0	0.08199823
131	0x3d45078a	0.048102893
132	0xbdb492f3	-0.08817091
133	0xbc12070a	-0.008912811
134	0xbd948804	-0.072525054
135	0xbd9eeff8	-0.07760614
136	0xbd994a43	-0.074848674
137	0xbd6c6124	-0.057709828
138	0x3d70c36d	0.058780123
139	0x3d9b813f	0.07593011
140	0x3dae0306	0.084966704
141	0x3d24d463	0.04024161
142	0x3dcc7fae	0.099852905
143	0x3c443d0a	0.0119774435
144	0xbd5982c1	-0.053103212
145	0x3ddb0d64	0.106959134
146	0xbd587fc2	-0.052856214
147	0xbd55b511	-0.05217463
148	0x3dcfffe7	0.101562314
149	0xbd9cd1fb	-0.07657238
150	0xbdfd5869	-0.123703785
151	0xbd1d9fa7	-0.038482334
152	0x3d9df0f6	0.07711975
153	0xbdb8c927	-0.09022742
154	0xbc908234	-0.01764021
155	0xbdabf127	-0.083956055
156	0xbd0313f7	-0.03200146
157	0xbde972eb	-0.11398872
158	0x3e06228c	0.13099116
159	0x3dc04b6d	0.09389386
160	0x3dc637d1	0.09678615
161	0xbdba5c9d	-0.09099696
162	0x3d081cd4	0.033230618
163	0xbdc94aea	-0.09828742
164	0xbdf7151e	-0.12064575
165	0x3d34e8ab	0.044167202
166	0x3d3d3a1a	0.046197988
167	0xbcd8b724	-0.026454516
168	0xbd85f065	-0.06539992
169	0x3d9dbc6e	0.07701956
170	0xbd84cc7e	-0.06484316
171	0xbc7fae31	-0.015605495
172	0x3c8c356a	0.017115314
173	0x3e10c1f9	0.14136495
174	0xbd511164	-0.051041976
175	0x3db3ce9f	0.08779644
176	0x3d31169e	0.04323446
177	0xbdb277b8	-0.08714241
178	0xbdb7217b	-0.08941933
179	0xbbe07c20	-0.0068507344
180	0xbda319c4	-0.07963899
181	0x3e003cfe	0.12523267
182	0xbc0f046f	-0.008729084
183	0x3da240f0	0.07922542
184	0x3d488c64	0.048962012
185	0xbd8ac124	-0.0677512
186	0x3deecf2f	0.11660611
187	0x3b9c0c00	0.0047621727
188	0x3e064382	0.1311169
189	0xbd86f13a	-0.06588979
190	0x3d9dacd0	0.07698977
191	0x3d17f076	0.037094556
192	0xbe02deef	-0.12780355
193	0xbd0c1855	-0.034202892
194	0x3e00f08b	0.1259176
195	0xbdbda70a	-0.09260376
196	0x3dc24796	0.0948631
197	0x3caec568	0.021334365
198	0x3d24ad49	0.04020432
199	0x3d7915e7	0.060811903
200	0xbd2b8407	-0.041873958
201	0x3dce281a	0.100662425
202	0x3e08be07	0.1335374
203	0x3e07bf05	0.13256462
204	0x3d71897c	0.058969006
205	0xbe01b7c1	-0.12667753
206	0xbdc308ed	-0.09523187
207	0xbd2b1b3c	-0.04177402
208	0x3df84c45	0.12123922
209	0xbe0f0513	-0.1396678
210	0x3de4a9eb	0.11165222
211	0xbdf7182d	-0.12065158
212	0x3dde62f7	0.1085872
213	0x37440290	1.1683107e-05
214	0x3db63942	0.0889764
215	0xbd75dfb7	-0.060027804
216	0xbaccdf87	-0.0015630581
217	0x3e092a15	0.1339496
218	0xbddc178b	-0.10746678
219	0x3dc827a8	0.09773189
220	0x3d150e39	0.036390517
221	0xbd6bb497	-0.05754527
222	0x3e08009a	0.1328148
223	0x3d5de4bd	0.05417322
224	0xbdecba11	-0.11558927
225	0xbddd7779	-0.10813803
226	0x3e0b6961	0.13614418
227	0x3dde0bf4	0.10842124
228	0x3e0b3b36	0.13596806
229	0x3de61e67	0.112362675
230	0xbdd81522	-0.10550906
231	0x3ad11da5	0.0015954269
232	0x3d9b526e	0.075840816
233	0x3db4d6a5	0.08830003
234	0x3c234dda	0.009967292
235	0xbd98e348	-0.074652255
236	0xbd41df2c	-0.047331974
237	0x3de00ed3	0.109403275
238	0x3c5b36f7	0.013379804
239	0xbdbd17f7	-0.092330866
240	0xbe0b40a5	-0.13598879
241	0x3d42a9c7	0.047525194
242	0x3cc062a0	0.023484528
243	0xbd90f157	-0.07077282
244	0x3dd146b5	0.102185644
245	0xbd440063	-0.04785193
246	0xbe0f9091	-0.14019991
247	0x3e0df60e	0.13863394
248	0x3d970da1	0.073756464
249	0x3c4c33e9	0.012463548
250	0x3da61117	0.081087284
251	0xbd41c688	-0.047308475
252	0xbd22b4e8	-0.039723307
253	0x3d9256a5	0.071454324
254	0x3db0434a	0.08606584
255	0x3de59e8d	0.11211882

lstm.bias_ih f4 [200]
0	0xbdb67263	-0.08908536
1	0xbdde1025	-0.10842923
2	0x3d8aa023	0.06768825
3	0x3d91c489	0.07117564
4	0x3c551676	0.013005843
5	0xbd80727e	-0.06271838
6	0xbdb27e30	-0.087154746
7	0xbe09b5f4	-0.13448316
8	0x3b1914b5	0.002335829
9	0x3c712212	0.014717596
10	0x3dbfb9cc	0.0936161
11	0xbd534437	-0.051578727
12	0x3cdef94e	0.027218487
13	0x3dd17286	0.10226922
14	0xbdb96bf7	-0.09053796
15	0xbc83cfcf	-0.016090302
16	0xbd611ca8	-0.05495897
17	0x3b39f4fa	0.0028374777
18	0x3d09f7dd	0.033683646
19	0xbd4322de	-0.047640674
20	0xbdd8f200	-0.10593033
21	0xba6d8587	-0.00090607296
22	0x3b1ccd0a	0.0023925924
23	0x3d20b7aa	0.039237656
24	0x3ce7dacb	0.02830257
25	0xbcd016be	-0.02540147
26	0x3da2bcd1	0.0794617
27	0xbe0e50cf	-0.13898014
28	0x3d5ec293	0.05438478
29	0xbd08490f	-0.0332728
30	0x3db2c682	0.087292686
31	0x3ddd53da	0.10807009
32	0xbd1faac0	-0.0389812
33	0x3ca8de2d	0.020613754
34	0x3dde43ec	0.10852799
35	0x3dcd82da	0.100347236
36	0x3ddb4e81	0.10708333
37	0x3d44f4c4	0.04808499
38	0x3dcca35f	0.09992098
39	0xbb6bf232	-0.0036002514
40	0xbd682769	-0.05667821
41	0x3e034e66	0.12822875
42	0xbdeb5471	-0.11490715
43	0xbde94f31	-0.11392058
44	0xbd8db865	-0.06919936
45	0x3e0f6776	0.14004311
46	0xbd61758f	-0.055043753
47	0xbdba10e1	-0.09085251
48	0x3d3188ba	0.043343283
49	0x3e0da76b	0.13833396
50	0xbda9ce0e	-0.08291255
51	0xbe08ee28	-0.133721
52	0xbcb823bc	-0.022477977
53	0x3c211cb1	0.009833501
54	0xbe09ed3e	-0.13469407
55	0x3d8bcfc7	0.0682674
56	0xbe091e5e	-0.1339049
57	0xbd8f10a9	-0.069855995
58	0xbdcf3ac2	-0.10118629
59	0xbda1451a	-0.07874508
60	0xbd8c7e0f	-0.06859981
61	0xbdd2ea59	-0.102986045
62	0xbd9941b9	-0.07483239
63	0xbd06bbe0	-0.032894015
64	0xbcc679c3	-0.024227982
65	0x3dcce750	0.10005057
66	0x3d09a3e0	0.03360355
67	0xbcbed54d	-0.02329507
68	0xbdac4595	-0.08411709
69	0x3d44e590	0.04807049
70	0xbe0ead6c	-0.13933343
71	0xbdc78017	-0.09741228
72	0xbdb9ca86	-0.090718314
73	0xbdc2337f	-0.09482478
74	0x3abbd587	0.0014330604
75	0xbd8418ad	-0.06450019
76	0xbdc60450	-0.09668791
77	0x3d39e8f5	0.04538818
78	0xbdc48a48	-0.095966876
79	0xbd02e800	-0.031959534
80	0x3ba8e211	0.0051539023
81	0x3cbf68e0	0.023365438
82	0xbdfb1c81	-0.12261296
83	0x3dccfddf	0.100093596
84	0x3cec3300	0.028832912
85	0xbe0972a5	-0.1342264
86	0x3d1d4799	0.03839836
87	0xbddd10f3	-0.107942484
88	0x3cf30001	0.029663088
89	0x3dbf07ad	0.09327636
90	0xbcd7a778	-0.026324973
91	0x3d8d3d0d	0.0689641
92	0xbd4192aa	-0.04725901
93	0xbd2a71dd	-0.041612495
94	0x3d4023b6	0.046909057
95	0xbe00c613	-0.1257556
96	0x3de714a3	0.11283233
97	0x3c61d087	0.013782627
98	0x3d42209e	0.047394387
99	0xbe051f62	-0.13000253
100	0x3e0d5cd6	0.13804945
101	0x3d94b7f0	0.07261646
102	0x3db2fb8d	0.08739386
103	0xbd987d43	-0.07445767
104	0xbdac83f7	-0.08423608
105	0x3dc432a8	0.095799744
106	0x3d980ef9	0.07424731
107	0x3dc0745e	0.09397195
108	0xbdc31c3d	-0.095268704
109	0xbddb4c64	-0.1070793
110	0x3db5c2dd	0.08875058
111	0xbb66cc6e	-0.0035217064
112	0xbdd803ea	-0.105476215
113	0x3cb0b160	0.021568954
114	0x3de26be1	0.110557325
115	0xbd5af0c9	-0.053452287
116	0xbb8dd614	-0.0043284986
117	0x3d6aff84	0.057372585
118	0xbdfb71e1	-0.1227758
119	0xbe0194aa	-0.12654367
120	0x3de1d230	0.11026418
121	0xbce17507	-0.027521623
122	0xbd1becde	-0.03806769
123	0x3d269350	0.040667832
124	0x3de4abaf	0.111655585
125	0xbdc24f49	-0.09487779
126	0xbd6a8b13	-0.057261538
127	0xbd98bbfc	-0.0745773
128	0x3d699f77	0.057036843
129	0x3d56e0ab	0.052460354
130	0x3cf3a600	0.02974224
131	0x3da359bd	0.079761006
132	0xbe01b96a	-0.12668386
133	0xbd8a4de4	-0.06753138
134	0x3df6c9d4	0.120502144
135	0xbdf60d8d	-0.12014303
136	0x3d4becd0	0.04978639
137	0xbd46fdb5	-0.048581798
138	0x3df0ca22	0.11757304
139	0x3dc1bece	0.09460221
140	0xbdbfeecd	-0.093717195
141	0x3d5811c0	0.052751303
142	0xbd9526eb	-0.07282814
143	0xbda88a53	-0.08229508
144	0xbd99c860	-0.075089216
145	0xbd5c861e	-0.05383884
146	0x3d4dfd64	0.05029048
147	0x3d5c315a	0.053758003
148	0xbb8e261f	-0.0043380405
149	0x3dda92db	0.10672542
150	0xbde8186d	-0.11332784
151	0xbded2d91	-0.11580957
152	0xbda3f4e6	-0.08005695
153	0xbdc20e93	-0.09475436
154	0x3d336825	0.04380049
155	0x3de888eb	0.1135424
156	0xbd6b5017	-0.057449427
157	0x3da22a2e	0.079182014
158	0xbe0a486f	-0.13504194
159	0xbcc0a61f	-0.023516713
160	0xbd516237	-0.051119056
161	0x3d9516e0	0.07279754
162	0xbdcb0cad	-0.09914527
163	0x3d8fdde1	0.07024742
164	0x3e04c5ed	0.12966128
165	0xbe07a84a	-0.13247791
166	0xbd9e3d68	-0.07726556
167	0xbd01305c	-0.03154026
168	0xbd852579	-0.06501288
169	0x3ce45cc3	0.027876263
170	0x3e0899ad	0.13339873
171	0xbcffe400	-0.031236649
172	0x3dfa0691	0.12208284
173	0xbd73df58	-0.05953917
174	0xbbafbf82	-0.0053634057
175	0xbd18fde3	-0.0373515
176	0xbc87f3f9	-0.016595827
177	0xbdd71c42	-0.105034366
178	0xbda157cc	-0.07878074
179	0x3cf1ad68	0.029501632
180	0x3d15fdbd	0.036618937
181	0xbe04d733	-0.12972717
182	0xbe02d29b	-0.12775652
183	0xbe101bbc	-0.1407308
184	0xbe06e5f9	-0.13173665
185	0xbd5c3d72	-0.053769536
186	0xbde02d74	-0.109461695
187	0x3dd9b0eb	0.106294475
188	0xbd7f7b99	-0.06237373
189	0x3c456576	0.012048116
190	0x3d9ffcd0	0.07811892
191	0xbdd3c7c5	-0.103408374
192	0xbda17cc1	-0.07885123
193	0x3e0e41ab	0.13892238
194	0xbbd54b7f	-0.006509244
195	0xbd58b32a	-0.05290524
196	0xbd4c5802	-0.04988862
197	0xbdce6990	-0.10078728
198	0xbdcd4f13	-0.10024848
199	0x3d983d7e	0.07433604

lstm.bias_hh f4 [200]
0	0xbd1064c9	-0.035252366
1	0x3db378f9	0.08763308
2	0xbc4fa223	-0.012672934
3	0xbd8e5430	-0.06949651
4	0x3bf6cb6e	0.007531575
5	0xbca45525	-0.020060131
6	0x3cd7cab8	0.026341781
7	0xbda79ccc	-0.081842035
8	0xbd8accb6	-0.06777327
9	0xbd5e40ae	-0.054260902
10	0xbdc4ee79	-0.096157975
11	0x3db01865	0.08598403
12	0x3d577fc9	0.0526121
13	0x3dd134e6	0.10215168
14	0x3dbfd452	0.09366669
15	0x3e0698f6	0.13144287
16	0xbdba7fb6	-0.0910639
17	0x3ccc9e15	0.024977723
18	0xbdc0cf56	-0.09414546
19	0x3dad3fd6	0.08459441
20	0x3d48d69f	0.049032804
21	0x3d9f2722	0.07771136
22	0x3dd4ba46	0.10387091
23	0xbdec14a6	-0.11527376
24	0x3d84c827	0.064834885
25	0x3db694e4	0.089151174
26	0x3cad1155	0.021126429
27	0x3d1c8fe0	0.038223147
28	0xbc9c60da	-0.019089151
29	0xbd392fbf	-0.04521155
30	0x3c44c486	0.012009745
31	0x3d9ddbad	0.077079155
32	0xbe040608	-0.12892926
33	0x3d08dd5b	0.033414226
34	0xbd6108ce	-0.054940037
35	0xbdb91b13	-0.09038367
36	0xbdaf9dec	-0.08575043
37	0xbbd4a991	-0.0064899405
38	0x3d8927d7	0.06697052
39	0x3c1da400	0.00962162
40	0xbd9e547e	-0.07730959
41	0x3d7c6a7b	0.061624985
42	0xbcc41681	-0.023936512
43	0x3ce40226	0.027833056
44	0x3e011bae	0.12608215
45	0x3da2ebfd	0.079551674
46	0x3d8bb7fb	0.06822201
47	0xbe0cddc4	-0.13756472
48	0x3c887088	0.016655222
49	0xbd364a7d	-0.04450463
50	0xbdbbff3d	-0.09179542
51	0xbc842d0a	-0.016134758
52	0xbd68c70e	-0.05683046
53	0xbc00b411	-0.007855431
54	0xbd487c69	-0.04894677
55	0x3d93a0dd	0.072084166
56	0x3da11cda	0.07866831
57	0xbdd68315	-0.10474221
58	0xbd57cdfd	-0.05268668
59	0x3db7942d	0.08963809
60	0x3bcaa7dc	0.006184561
61	0xbc89522b	-0.016762814
62	0x3bf9a036	0.0076179756
63	0xbd8bff29	-0.06835777
64	0xbd53a082	-0.051666744
65	0x3d6d8a32	0.05799312
66	0xbc374672	-0.011186229
67	0x3d5473fd	0.051868428
68	0xbd1690ec	-0.036759302
69	0x3da0810a	0.07837112
70	0xbdadd56c	-0.084879726
71	0xbca96107	-0.020676149
72	0x3e01b102	0.1266518
73	0xbd8c0195	-0.06836239
74	0x3dff065e	0.12452386
75	0xbdf1a6e2	-0.117994085
76	0xbdce306b	-0.10067829
77	0xbcd258cd	-0.02567711
78	0xbd4c174f	-0.049826916
79	0x3c30a9b4	0.010782648
80	0x3d6fe411	0.05856711
81	0xbc336a56	-0.010950645
82	0xbd34c156	-0.044129692
83	0xbd15cc10	-0.036571562
84	0xbd782eb2	-0.060591407
85	0x3e0b4f8f	0.13604568
86	0x3a4b072e	0.00077449053
87	0x3d949602	0.07255174
88	0x3c608d4f	0.013705566
89	0x3b9cf5a1	0.0047900234
90	0x3cbcf5fe	0.023066517
91	0xbd93b2ae	-0.07211815
92	0xbc48c6ad	-0.012254399
93	0x3d991f2c	0.07476649
94	0xbd830d9f	-0.063990824
95	0xbbfe9b45	-0.0077699744
96	0x3e02c2a3	0.1276956
97	0xbd6b08a8	-0.057381302
98	0x3dbd07d8	0.09230012
99	0xbdca2122	-0.09869601
100	0x3e0b2371	0.13587739
101	0xbdc4db4f	-0.09612142
102	0xbd8799e6	-0.06621151
103	0x3d89b8de	0.06724714
104	0x3d77f1be	0.060533278
105	0x3d29a638	0.041418284
106	0xbe0aa888	-0.13540852
107	0x3e003cc9	0.12523188
108	0x3d9c5a9a	0.076344684
109	0x3d91b2c3	0.07114174
110	0xbdacaf44	-0.08431867
111	0xbd515f7e	-0.05111646
112	0x3d84f0c5	0.06491236
113	0xbc995928	-0.01871927
114	0x3d207ec2	0.039183386
115	0xbe034434	-0.12818986
116	0x3c561d94	0.013068575
117	0x3e08a299	0.13343276
118	0xbdeee573	-0.11664858
119	0xbd27f761	-0.041007403
120	0x3de5a78e	0.11213599
121	0x3de2c45d	0.110726096
122	0x3d27655c	0.04086815
123	0xbd72e00b	-0.059295695
124	0x3d869401	0.06571198
125	0x3ddd7a78	0.10814375
126	0xbd72ce8f	-0.05927902
127	0x3d2fb4f5	0.042897183
128	0xbdf8e6f8	-0.12153429
129	0x3d621eaa	0.055205025
130	0x3d4d0aa4	0.050058976
131	0x3d9157d8	0.07096833
132	0xbd80f33b	-0.062963925
133	0x3dc5b27d	0.096531846
134	0x3c8ba9e7	0.01704879
135	0x3e0ed955	0.13950093
136	0xbd9f33a8	-0.077735245
137	0x3e06f672	0.13179949
138	0x3dd15325	0.10220937
139	0x3d92d474	0.071694285
140	0x3df8920b	0.121372305
141	0xbdd68233	-0.10474052
142	0x3d9eb14b	0.0774866
143	0xbe0e5297	-0.13898693
144	0xbc9341c6	-0.0179757
145	0x3d5508ec	0.05201046
146	0xbdcf5c9d	-0.101250865
147	0xbdbe118a	-0.09280689
148	0xbdb51d64	-0.088434964
149	0x3d8ef9df	0.06981253
150	0xbc3dbd5c	-0.011580791
151	0xbd4d5ef7	-0.050139394
152	0xbd1c9442	-0.038227327
153	0x3dda83eb	0.106696926
154	0xbdd7c624	-0.10535839
155	0x3db88974	0.09010592
156	0xbd0b3c91	-0.033993308
157	0xbd91ae87	-0.071133666
158	0x3c8aad6e	0.0169284
159	0x3dd5078b	0.10401829
160	0x3b4d3c95	0.0031316627
161	0xbe0c9012	-0.13726833
162	0xbd47a0ed	-0.048737455
163	0x3cd9ad7f	0.026571987
164	0x3dacae5b	0.08431693
165	0x3e03d826	0.12875423
166	0xbda71064	-0.08157423
167	0x3d690504	0.05688955
168	0x3e10b838	0.14132774
169	0xbd9a27b1	-0.07527102
170	0x3cf0656a	0.029345233
171	0x3c94184f	0.018077997
172	0x3e0bbcd9	0.13646258
173	0x3daf84f2	0.08570279
174	0x3ba8af94	0.0051478837
175	0x3d8bdd75	0.06829349
176	0x3cbd9b3e	0.023145314
177	0x3d6180df	0.05505454
178	0xbc285fd1	-0.010276751
179	0x3dc7680e	0.09736644
180	0xbdb23dbe	-0.08703183
181	0x3d4ab3d4	0.049487904
182	0xbda9a884	-0.08284095
183	0xbdbdef90	-0.092742085
184	0x3dfb44f8	0.12269014
185	0x3de18790	0.110121846
186	0x3dae5cf7	0.085138254
187	0xbd687762	-0.056754477
188	0x3dd47d59	0.10375471
189	0xbcf853a0	-0.030313313
190	0xbce0d6be	-0.027446147
191	0xb9ecf152	-0.00045193225
192	0x3d86df7a	0.065855935
193	0xbda43a95	-0.08018986
194	0x3da786ee	0.08180033
195	0xbe0501b3	-0.1298893
196	0x3d9e06b2	0.07716121
197	0x3dd51e0c	0.104061216
198	0xbd24d8f3	-0.04024596
199	0xbd09fff5	-0.033691365

linear.weight f4 [9, 50]
0	0x3d66ebd4	0.056377247
1	0x3da61e5e	0.08111261
2	0xbca39b48	-0.019971505
3	0x3ccf4746	0.02530254
4	0x3dcd7213	0.100315236
5	0xb9a96e7f	-0.00032316518
6	0x3d856028	0.06512481
7	0x3c30c1ad	0.010788363
8	0xbbde51c1	-0.006784648
9	0x3dc0a621	0.094066866
10	0xbd0033ec	-0.031299517
11	0xbd08a731	-0.03336257
12	0x3e080fb2	0.13287237
13	0x3e105f96	0.14098963
14	0x3df051b7	0.11734336
15	0x3ddc5043	0.10757496
16	0xbb0b0c9b	-0.002121723
17	0x3de791a5	0.11307076
18	0xbd0b4d3c	-0.034009203
19	0xbd28ef02	-0.04124356
20	0x39bf60e3	0.00036502545
21	0x3d543f38	0.051818103
22	0x3cd00997	0.025395198
23	0x3d14245e	0.036167495
24	0xbd23ea31	-0.040018264
25	0xbb87f779	-0.004149374
26	0xbe0886f7	-0.13332735
27	0xbdf5bc1f	-0.11998772
28	0x3d681bbe	0.056667082
29	0x3c9021c1	0.01759422
30	0x3db42d81	0.08797742
31	0xbdeb92bc	-0.11502597
32	0xbdaadcbc	-0.08342883
33	0xbd6dd330	-0.058062732
34	0xbd318d2e	-0.04334753
35	0x3dbec071	0.09314049
36	0xbd8132dc	-0.06308529
37	0xbca09fb6	-0.019607406
38	0x3cc65e81	0.024214985
39	0x3d2ef355	0.04271253
40	0xbdc83814	-0.09776321
41	0xbdba5761	-0.090986975
42	0x3c187b44	0.009306733
43	0xbe0b7540	-0.13618946
44	0xbd847da0	-0.064692736
45	0xbd55f49a	-0.052235223
46	0x3d4f2eef	0.05058187
47	0xbdab798b	-0.08372792
48	0xbd268c03	-0.04066087
49	0x3e072ab7	0.13199888
50	0xbdffca0f	-0.124897115
51	0xbc704ad4	-0.014666278
52	0x3cb23527	0.02175386
53	0x3d24c35d	0.040225375
54	0xbce4beb2	-0.027922962
55	0x3c458840	0.01205641
56	0x3c9777d4	0.018489756
57	0xbddb8202	-0.107181564
58	0xbd9fe257	-0.07806843
59	0x3dd7c6b0	0.105359435
60	0xbddf07c1	-0.10890151
61	0x3dd7a09f	0.10528683
62	0xbde81d31	-0.11333693
63	0xbde2df1a	-0.110777095
64	0x3d4f8d87	0.05067208
65	0x3da65841	0.08122302
66	0xbda7e6d0	-0.08198321
67	0x3d1b1905	0.037865657
68	0x3db6d4b3	0.08927288
69	0x3debb283	0.11508658
70	0x3dd945ef	0.10609042
71	0xbdfe36af	-0.12412774
72	0x3e0bd6db	0.1365618
73	0x3dea30a7	0.11435061
74	0xbd087eb1	-0.033323947
75	0x3bafac6b	0.00536113
76	0x3d9dfac1	0.07713843
77	0x3e069fef	0.13146947
78	0x3d7dd2e4	0.0619687
79	0xbde05bd0	-0.10955012
80	0xbe064c18	-0.13114965
81	0x3d458196	0.048219286
82	0x3de891b0	0.11355913
83	0xbdae1925	-0.0850089
84	0x3dc8f279	0.09811873
85	0x3ddac359	0.10681791
86	0x3d77ca9f	0.06049597
87	0xbcf5336d	-0.029931748
88	0x3d022556	0.031773888
89	0x3c2c9573	0.010533678
90	0x3e06e6fc	0.13174051
91	0x3e083d69	0.13304676
92	0x3e016398	0.12635648
93	0xbd95322c	-0.0728496
94	0xbd4babd4	-0.049724415
95	0x3c92c74d	0.0179173
96	0x3cf60e11	0.030036004
97	0x3df47914	0.11937156
98	0xbcd986ad	-0.026553476
99	0xbdd79705	-0.105268516
100	0xbdebdb86	-0.1151648
101	0xbd23a05b	-0.03994785
102	0x3d2c3a9a	0.042048074
103	0x3e03448e	0.1281912
104	0x3a949420	0.0011335649
105	0x3ba8e39f	0.0051540877
106	0xbdddfdf2	-0.10839452
107	0xbde19577	-0.11014836
108	0x3e0ed104	0.1394692
109	0x3dd77104	0.10519603
110	0x3ddbca4d	0.10731945
111	0xbded6fd9	-0.11593599
112	0xbdcd0fc9	-0.100127764
113	0xbb44cbf2	-0.0030028787
114	0xbde55e58	-0.11199635
115	0x3c171f4c	0.00922377
116	0xbdc28041	-0.09497119
117	0xbdb60e7f	-0.08889484
118	0x3dae8130	0.08520734
119	0xbd87becf	-0.06628191
120	0xbca023b8	-0.019548282
121	0xbe006ec4	-0.12542254
122	0xbdd8702a	-0.105682686
123	0xbd83f1c2	-0.06442596
124	0x3d8496ec	0.064740986
125	0xbdb52785	-0.088454284
126	0xbdce82ec	-0.10083565
127	0xbc3dc3ef	-0.011582359
128	0xbda35529	-0.079752274
129	0x3e0b9019	0.13629188
130	0xbd8e6099	-0.06952018
131	0x3ca52d7c	0.02016329
132	0x3e03df6c	0.12878197
133	0xbd7305c0	-0.059331656
134	0x3d65c7af	0.056098636
135	0xbd5e9ba6	-0.054347657
136	0x3ca0cef2	0.01962993
137	0xbd7303b3	-0.0593297
138	0x3e1087d5	0.14114316
139	0xbc945c7a	-0.018110503
140	0x3dec10b0	0.115266204
141	0x3d984365	0.074347295
142	0xbdc64530	-0.09681165
143	0x3a5a1c8c	0.0008320294
144	0xbdd5cab0	-0.1043905
145	0xbd782bb5	-0.060588557
146	0xbd075d77	-0.03304812
147	0xbd7fb254	-0.062425926
148	0x3dee72a6	0.11642961
149	0xbd7c527e	-0.06160211
150	0x3dc129d6	0.09431808
151	0x3dfb8956	0.12282054
152	0xbdd83fab	-0.10559019
153	0x3d186aea	0.037211336
154	0xbd5514d1	-0.052021805
155	0x3d9a9e4f	0.07549726
156	0xbcac70f6	-0.021049958
157	0xbe052db6	-0.13005719
158	0x3d7e0417	0.06201562
159	0xbdac3755	-0.08408991
160	0xbd102623	-0.03519262
161	0xbdd4ec8f	-0.103966825
162	0x3d5a79a8	0.053338677
163	0x3e02c5ca	0.12770763
164	0x3d88feff	0.06689262
165	0xbc475dfb	-0.012168403
166	0x3db40b3b	0.087912045
167	0xbcd25313	-0.025674378
168	0xbdcd0027	-0.10009795
169	0xbbadfc3c	-0.0053096097
170	0xbd98890c	-0.074480146
171	0xbd13f060	-0.03611791
172	0x3c969f1a	0.018386412
173	0x3cfcfc29	0.030881958
174	0xbca64494	-0.020296372
175	0xbdf0266c	-0.117260784
176	0xbce25130	-0.027626604
177	0x3de04319	0.10950298
178	0xbbd750f5	-0.00657093
179	0x3ce044f0	0.027376622
180	0xbd49ee24	-0.049299374
181	0xbd3756cc	-0.04476051
182	0x3c9221bc	0.017838351
183	0xbdaa1156	-0.08304088
184	0xbd29d26e	-0.041460447
185	0xbd4277cd	-0.047477532
186	0x3dee46bd	0.11634586
187	0x3dd36be2	0.103233114
188	0x3cae3184	0.021263845
189	0x3dc7e382	0.097601905
190	0x3db198bb	0.08671709
191	0xbe06b4db	-0.13154928
192	0x3da6c9f7	0.081439905
193	0x3d4d0fce	0.0500639
194	0xbd9a55c7	-0.07535892
195	0xbd65bc12	-0.05608756
196	0x3dec5bed	0.11540971
197	0xbdaa0f64	-0.08303717
198	0xbc6f6ec7	-0.014613814
199	0xbdaa7649	-0.08323342
200	0xbdf5720d	-0.11984644
201	0x3cd5fe1c	0.026122145
202	0x3db5dea3	0.08880355
203	0x3e09a153	0.13440447
204	0x3d509868	0.050926596
205	0xbcdc8c5c	-0.026922397
206	0xbb7f538a	-0.0038959705
207	0xbdbc08ff	-0.09181403
208	0xbda57f9b	-0.080809794
209	0xbd9cd275	-0.07657329
210	0x3da5f167	0.081026845
211	0xbe044c27	-0.12919675
212	0xbde6cba0	-0.11269307
213	0x3d5405c9	0.05176333
214	0x3dcdc1a2	0.10046698
215	0x3de791d6	0.11307113
216	0x3ddf5286	0.10904412
217	0xbe0ab059	-0.13543834
218	0x3d3ca702	0.04605771
219	0xbc41d033	-0.011829424
220	0x3d2d9137	0.042374816
221	0x3e093c99	0.13402022
222	0x3ba931f8	0.0051634274
223	0xbdead5d5	-0.114665665
224	0xbd0ddbdb	-0.0346335
225	0x3dc604b1	0.096688636
226	0xbde4fe5d	-0.111813284
227	0x3d118138	0.035523623
228	0x3ca91ab5	0.020642618
229	0xbcbb016e	-0.02282783
230	0xbe06ad0a	-0.13151947
231	0xbdfc8b75	-0.12331287
232	0xbe08f10c	-0.13373202
233	0x3d404500	0.046940804
234	0x3ddc1441	0.107460506
235	0x3d733be6	0.059383295
236	0x3d2cc2e6	0.042178057
237	0xbdf7f57c	-0.12107369
238	0xbc9733e9	-0.01845737
239	0x3e058958	0.13040674
240	0xbdac94c2	-0.08426811
241	0x3e0cd0bc	0.13751501
242	0xbdc91390	-0.098181844
243	0x3de65f65	0.11248664
244	0xbc0fe8f9	-0.008783572
245	0xbdfd993a	-0.12382741
246	0xbe0e7d0f	-0.13914894
247	0x3da457b5	0.08024541
248	0xbd67e61b	-0.05661593
249	0xbdeb6d62	-0.114954725
250	0x3d5637a2	0.05229915
251	0x3e047222	0.12934163
252	0xbd285b3d	-0.041102637
253	0x3d85dbd6	0.06536071
254	0x3ce81d70	0.02833435
255	0xbe01b4bc	-0.12666601

linear.bias f4 [9]
0	0xbcf97c66	-0.030454826
1	0xbe0657d1	-0.13119437
2	0x3deb0c31	0.11476935
3	0x3dff5d33	0.12468948
4	0xbdb3d828	-0.08781463
5	0x3d8d9f59	0.06915159
6	0xbc936d0c	-0.017996334
7	0xbde773c2	-0.11301376
8	0xbd82b7c9	-0.063827105

proxlstm.lstm.weight_ih f4 [200, 64]
0	0xbc3e1827	-0.011602438
1	0xbe02269f	-0.12710045
2	0xbe02ae23	-0.1276174
3	0x3d572b69	0.052531634
4	0xbce4ad9f	-0.02791482
5	0xbdce9164	-0.10086325
6	0x3d854b69	0.06508524
7	0x3e040103	0.12891011
8	0x3da7a504	0.08185771
9	0xbe100110	-0.14062905
10	0xbdc7c017	-0.09753435
11	0xbd527e79	-0.051390145
12	0x3d7cd268	0.061724097
13	0xb95a563f	-0.00020822229
14	0x3cd86dfe	0.026419636
15	0xbd9ab42b	-0.075538956
16	0xbd9ba09c	-0.07598993
17	0x3d608f6e	0.054824285
18	0xbd90efa7	-0.0707696
19	0x3d0a93ec	0.033832476
20	0x3c7d75ad	0.015469951
21	0xbe03a1ff	-0.12854765
22	0x3d9a3ca4	0.075310975
23	0x3cf3dd8b	0.029768726
24	0xbd70498a	-0.058663882
25	0x3d636836	0.055519305
26	0xbd2da367	-0.04239216
27	0xbbb9ee30	-0.005674146
28	0xbdd455eb	-0.1036795
29	0xbe0ea1c2	-0.13928893
30	0x3d49f97d	0.049310196
31	0xbd9c8d37	-0.07644122
32	0xbd76da67	-0.06026688
33	0xbda57142	-0.08078243
34	0xbcc39e8b	-0.02387931
35	0xbd73ea80	-0.05954981
36	0xbd3b2fcc	-0.04569988
37	0xbdc28d73	-0.094996355
38	0xbc2bdecd	-0.010490132
39	0x3b98db93	0.004664847
40	0x3d425ef3	0.047453832
41	0x3d9f065e	0.07764886
42	0xbbc58188	-0.006027404
43	0xbdf00eb7	-0.11721557
44	0xbbf39a27	-0.007434148
45	0xba010c08	-0.0004922752
46	0xbe1019a9	-0.14072289
47	0xbc848cf6	-0.016180497
48	0x3dc4660d	0.09589777
49	0xbde6f15a	-0.11276503
50	0x3c2c9b9a	0.010535145
51	0xbd96bf20	-0.07360673
52	0x3dfd749b	0.12375756
53	0xbd9926ed	-0.07478128
54	0xbd244f81	-0.040114883
55	0x3d571156	0.052506767
56	0xbe0bf68e	-0.13668272
57	0x3cf795fb	0.030222883
58	0x3de83d6b	0.113398395
59	0x3db03ab5	0.086049475
60	0xbd05a4ec	-0.032627985
61	0xbc8eab4e	-0.017415669
62	0xbdfeecf7	-0.12447541
63	0xbba4c8b8	-0.0050288104
64	0x3d548c81	0.051891807
65	0x3d0ad835	0.033897597
66	0x3d63cb6b	0.055613916
67	0xbd23ffd9	-0.040038917
68	0x3dea8a67	0.114521794
69	0xbcd92945	-0.026508937
70	0xbd0784d6	-0.033085667
71	0x3dfbcbb0	0.1229471
72	0xbe059b74	-0.13047582
73	0xbd331936	-0.043725215
74	0x3d814ca0	0.06313443
75	0x3dde8dc1	0.10866881
76	0x3dd18981	0.10231305
77	0xbd453088	-0.048141986
78	0xbd97ca0a	-0.07411583
79	0xbe022b5a	-0.1271185
80	0x3ddd0101	0.10791207
81	0x3df3fd48	0.11913544
82	0xbd9674b8	-0.07346481
83	0xbdda8bed	-0.1067122
84	0x3dfc5908	0.12321669
85	0x3e05dc88	0.13072407
86	0xbdbb25a9	-0.091380425
87	0x3e0d8527	0.13820325
88	0xbd4a3561	-0.049367312
89	0x3de688f2	0.11256589
90	0xbd5eb5fd	-0.054372776
91	0xbd9106a0	-0.07081342
92	0xbe0b76d8	-0.13619554
93	0xbddc3d39	-0.10753865
94	0xbb7c8f4d	-0.0038537562
95	0xbd466041	-0.04843164
96	0xbc649531	-0.013951586
97	0x3d8e382e	0.06944309
98	0x3dbef468	0.093239605
99	0xbba850f8	-0.0051366054
100	0xbdc4ff78	-0.09619039
101	0xbdfea5fb	-0.12434002
102	0xbb590dde	-0.0033119838
103	0x3d976564	0.073923856
104	0x3dbc926c	0.09207615
105	0xbdeac58b	-0.114634596
106	0x3d253b61	0.04033983
107	0x3dab6c47	0.08370262
108	0x3dcb125c	0.09915611
109	0x3c9f2b2c	0.019429766
110	0x3d553335	0.052050788
111	0xbcf2ee1d	-0.029654557
112	0xbd80cbe8	-0.06288892
113	0x3df4f031	0.119598754
114	0xbdf9f408	-0.122047484
115	0x3e102958	0.14078271
116	0xbd8b9f70	-0.0681752
117	0xbd68316f	-0.05668777
118	0x3daf03df	0.0854566
119	0x3d98bdce	0.07458077
120	0xbcb043f3	-0.021516776
121	0x3d9ba09c	0.07598993
122	0x3c24fd0c	0.010070097
123	0x3de7bf70	0.11315811
124	0x3def0bc4	0.11672166
125	0x3d152b05	0.03641798
126	0x3da84663	0.0821655
127	0x3d8402c6	0.064458415
128	0xbded7e0f	-0.115963094
129	0x3b65af9c	0.0035047298
130	0x3d0ebb32	0.034846492
131	0x3bf1f591	0.00738401
132	0x3e018240	0.12647343
133	0xbd7557a6	-0.05989804
134	0x3cfcb960	0.030850112
135	0x3c564466	0.013077831
136	0xbde9ba04	-0.11412433
137	0xbd4dfcf8	-0.050290078
138	0x3d943a45	0.072376765
139	0x3c5389d9	0.012911283
140	0xbbfeba19	-0.0077736494
141	0x3dc86c43	0.09786274
142	0x3d1ab0d4	0.037766293
143	0xbe0edf70	-0.13952422
144	0x3ae6a24a	0.0017595973
145	0xbdaea9bb	-0.08528467
146	0x3d181bd8	0.03713593
147	0xbdf6c9a5	-0.120501794
148	0x3e0c266c	0.13686532
149	0xbbe99f85	-0.007129612
150	0x3d4cc425	0.049991746
151	0x3d76ba5a	0.060236312
152	0xbdc8865b	-0.09791251
153	0x3d1642c1	0.036684755
154	0xbda8cc2e	-0.08242069
155	0x3d845a9f	0.06462597
156	0x3d4b11b3	0.049577426
157	0x3da2593d	0.07927177
158	0x3db958e4	0.09050158
159	0x3c3474c6	0.011014169
160	0xbdff3960	-0.12462115
161	0xbd56ef52	-0.052474327
162	0x3c85e8f6	0.016346436
163	0x3d9674c3	0.07346489
164	0x3dd048f0	0.10170162
165	0x3de555cc	0.11198005
166	0xbdc1258f	-0.09430992
167	0xbe019d56	-0.12657675
168	0x3e04da25	0.1297384
169	0xbe00244a	-0.12513843
170	0xbd173c81	-0.036922935
171	0xbde27021	-0.11056543
172	0x3d2942c3	0.041323435
173	0xbdd7061a	-0.10499211
174	0x3dd30648	0.103039324
175	0xbbe3ef96	-0.006956051
176	0x3e0a7aa4	0.13523346
177	0xbd575a93	-0.052576613
178	0x3c930657	0.017947359
179	0x3c1ea320	0.009682447
180	0x3dd92b39	0.10603947
181	0x3de7a3b8	0.11310524
182	0xbcfcb8e1	-0.030849876
183	0xbdffba66	-0.124867246
184	0xbcbcc90e	-0.02304509
185	0x3c830afc	0.015996449
186	0x3e03fbe8	0.12889063
187	0x3c37679c	0.011194136
188	0xbdb50822	-0.08839442
189	0x3dd1645a	0.10224219
190	0x3dbc518b	0.091952406
191	0xbe0abc21	-0.13548328
192	0xbdc48e11	-0.095974095
193	0xbdad6821	-0.08467127
194	0x3e075d09	0.13219084
195	0xbd58182a	-0.05275742
196	0xbd729788	-0.059226543
197	0xbd5b9a36	-0.053613864
198	0xbd945faf	-0.07244813
199	0xbd38edfc	-0.045148835
200	0x3c2dd150	0.010608986
201	0xbddfb224	-0.109226495
202	0x3c43318b	0.011913667
203	0x3d6b8f14	0.057509497
204	0xbc4660fa	-0.012108082
205	0x3dac1c8b	0.08403882
206	0xbd87c5fc	-0.066295594
207	0x3df1105e	0.117707
208	0xbdb34e99	-0.08755226
209	0x3dcfbeb2	0.10143794
210	0x3dbeaa4b	0.093098246
211	0x3d567871	0.052360956
212	0x3d2bd578	0.041951627
213	0xbd29c343	-0.04144598
214	0xbd8e645d	-0.069527365
215	0xbc459e3d	-0.012061653
216	0xbcac397d	-0.021023506
217	0x3da54671	0.08070076
218	0xbdf95800	-0.12174988
219	0x3ddba64b	0.10725077
220	0x3d9996bf	0.07499456
221	0x3c83579a	0.016032983
222	0x3ddbe4bd	0.10736988
223	0xbd80680d	-0.06269846
224	0x3dcec889	0.10096843
225	0xbde981d2	-0.114017144
226	0xbd80723e	-0.0627179
227	0x3c1b8844	0.0094929375
228	0xbccdfbf6	-0.025144558
229	0x3dc01559	0.09379072
230	0xbc9f975c	-0.019481353
231	0xbd4b37a2	-0.049613602
232	0xbd5f395a	-0.054498054
233	0x3da5bde0	0.080928564
234	0x3da2b897	0.07945364
235	0xbd9424d3	-0.07233586
236	0xbd945354	-0.07242456
237	0xbc29a2af	-0.010353728
238	0x3d594802	0.053047188
239	0xbda0b8b3	-0.078477286
240	0xbe0c106b	-0.13678138
241	0xbc74fca0	-0.014952809
242	0xbcda6e26	-0.026663851
243	0x3dd6aeab	0.10482534
244	0x3c84c813	0.016208684
245	0x3db0015a	0.08594008
246	0xbdaa5ae2	-0.08318116
247	0xbca5322f	-0.020165531
248	0xbd6642cf	-0.056216057
249	0xbe06a3b9	-0.13148393
250	0xbd9093c2	-0.070594326
251	0x3d6f66f6	0.0584478
252	0xbe0e41a3	-0.13892226
253	0x3de739c0	0.11290312
254	0xbc893126	-0.016747069
255	0x3df31cdd	0.118707396
